…
=0.1, lambda_med=0.5, lambda_spu=0.1, lambda_var=0.05, lamda=1.0, lr=0.005, num_layers=2, other_env_reduce='sample', pos_weight=5.0, result_name='cora_gat_frontdoor_stage1_lr0.005_weight_decay0.0_dropout0.1_hidden_channels64_K3', runs=2, seed=123, store_result=True, tau=1, use_bn=False, variant=False, weight_decay=0.0)
using existing synthetic data...
dataset cora: all nodes 16248 | edges 63336 | classes 7 | feats 1443
train nodes 4062 | valid nodes 2031 | test in nodes 2031
test ood1 nodes 8124 
[INFO] env numbers: 6 train env numbers: 3
MODEL: GraphFrontDoor(
  (act_fn): ReLU()
  (input_proj): Linear(in_features=1443, out_features=64, bias=True)
  (backbone_layers): ModuleList(
    (0): FrontDoorBackboneLayer(
      (leakyrelu): LeakyReLU(negative_slope=0.01)
    )
    (1): FrontDoorBackboneLayer(
      (leakyrelu): LeakyReLU(negative_slope=0.01)
    )
  )
  (causal_adapter): Linear(in_features=64, out_features=64, bias=True)
  (spurious_adapter): Linear(in_features=64, out_features=64, bias=True)
  (causal_norm): LayerNorm((64,), eps=1e-05, elementwise_affine=True)
  (spurious_norm): LayerNorm((64,), eps=1e-05, elementwise_affine=True)
  (classifier): Linear(in_features=64, out_features=7, bias=True)
  (spurious_classifier): Linear(in_features=64, out_features=7, bias=True)
  (fd_classifier): Linear(in_features=64, out_features=7, bias=True)
  (query_proj): Linear(in_features=64, out_features=64, bias=True)
  (key_proj): Linear(in_features=64, out_features=64, bias=True)
  (value_proj): Linear(in_features=64, out_features=64, bias=True)
  (aug_norm): LayerNorm((64,), eps=1e-05, elementwise_affine=True)
)
[INFO] TensorBoard logging activated. Logs will be saved to: ./runs/cora/frontdoor/cora_gat_frontdoor_stage1_lr0.005_weight_decay0.0_dropout0.1_hidden_channels64_K3
Epoch: 00, Loss: 4.1506, Cls: 2.0421, Ind: 0.0003, Med: 1.0429, Spu: 0.0154, FD: 1.0499, Var: 0.0000, Ctx: 3, Train: 39.93%, Valid: 39.83%, Test In: 39.59% Test OOD1: 40.26% 
Epoch: 01, Loss: 3.5969, Cls: 1.7847, Ind: 0.0014, Med: 0.9136, Spu: 0.0047, FD: 0.8926, Var: 0.0000, Ctx: 3, Train: 30.90%, Valid: 29.15%, Test In: 30.03% Test OOD1: 30.24% 
…
