…
 lambda_spu=0.1, lambda_var=0.05, lamda=1.0, lr=0.01, num_layers=2, other_env_reduce='sample', pos_weight=5.0, result_name='arxiv_gcn_frontdoor_stage1_lr0.01_weight_decay0.0001_dropout0.1_hidden_channels64_K3', runs=2, seed=123, store_result=True, tau=1, use_bn=False, variant=True, weight_decay=0.0001)
dataset arxiv: all nodes 169343 | edges 1166243 | classes 40 | feats 128
train nodes 15985 | valid nodes 7993 | test in nodes 7993
test ood1 nodes 21189 test ood2 nodes 37781 test ood3 nodes 78402 
[INFO] env numbers: 7 train env numbers: 3
MODEL: GraphFrontDoor(
  (act_fn): ReLU()
  (input_proj): Linear(in_features=128, out_features=64, bias=True)
  (backbone_layers): ModuleList(
    (0): FrontDoorBackboneLayer()
    (1): FrontDoorBackboneLayer()
  )
  (causal_adapter): Linear(in_features=64, out_features=64, bias=True)
  (spurious_adapter): Linear(in_features=64, out_features=64, bias=True)
  (causal_norm): LayerNorm((64,), eps=1e-05, elementwise_affine=True)
  (spurious_norm): LayerNorm((64,), eps=1e-05, elementwise_affine=True)
  (classifier): Linear(in_features=64, out_features=40, bias=True)
  (spurious_classifier): Linear(in_features=64, out_features=40, bias=True)
  (fd_classifier): Linear(in_features=64, out_features=40, bias=True)
  (query_proj): Linear(in_features=64, out_features=64, bias=True)
  (key_proj): Linear(in_features=64, out_features=64, bias=True)
  (value_proj): Linear(in_features=64, out_features=64, bias=True)
  (aug_norm): LayerNorm((64,), eps=1e-05, elementwise_affine=True)
)
[INFO] TensorBoard logging activated. Logs will be saved to: ./runs/arxiv/frontdoor/arxiv_gcn_frontdoor_stage1_lr0.01_weight_decay0.0001_dropout0.1_hidden_channels64_K3
Epoch: 00, Loss: 7.6481, Cls: 3.7724, Ind: 0.0134, Med: 1.8674, Spu: 0.0166, FD: 1.9783, Var: 0.0000, Ctx: 3, Train: 22.35%, Valid: 22.95%, Test In: 22.41% Test OOD1: 18.72% Test OOD2: 13.56% Test OOD3: 6.53% 
…
