…
t=5.0, result_name='elliptic_gcn_frontdoor_stage1_lr0.01_weight_decay0.001_dropout0.2_hidden_channels32_K3', runs=3, seed=123, store_result=True, tau=1, use_bn=False, variant=True, weight_decay=0.001)
dataset elliptic: all nodes 203769 | edges 234355 | classes 2 | feats 165
train nodes 3932 | valid nodes 1966 | test in nodes 1967
test ood1 nodes 2428 test ood2 nodes 2348 test ood3 nodes 4049 test ood4 nodes 3424 test ood5 nodes 2188 test ood6 nodes 2989 test ood7 nodes 4303 test ood8 nodes 5680 
[INFO] env numbers: 49 train env numbers: 5
MODEL: GraphFrontDoor(
  (act_fn): ReLU()
  (input_proj): Linear(in_features=165, out_features=32, bias=True)
  (backbone_layers): ModuleList(
    (0): FrontDoorBackboneLayer()
    (1): FrontDoorBackboneLayer()
    (2): FrontDoorBackboneLayer()
  )
  (causal_adapter): Linear(in_features=32, out_features=32, bias=True)
  (spurious_adapter): Linear(in_features=32, out_features=32, bias=True)
  (causal_norm): LayerNorm((32,), eps=1e-05, elementwise_affine=True)
  (spurious_norm): LayerNorm((32,), eps=1e-05, elementwise_affine=True)
  (classifier): Linear(in_features=32, out_features=2, bias=True)
  (spurious_classifier): Linear(in_features=32, out_features=2, bias=True)
  (fd_classifier): Linear(in_features=32, out_features=2, bias=True)
  (query_proj): Linear(in_features=32, out_features=32, bias=True)
  (key_proj): Linear(in_features=32, out_features=32, bias=True)
  (value_proj): Linear(in_features=32, out_features=32, bias=True)
  (aug_norm): LayerNorm((32,), eps=1e-05, elementwise_affine=True)
)
[INFO] TensorBoard logging activated. Logs will be saved to: ./runs/elliptic/frontdoor/elliptic_gcn_frontdoor_stage1_lr0.01_weight_decay0.001_dropout0.2_hidden_channels32_K3
Epoch: 00, Loss: 4.8044, Cls: 2.3645, Ind: 0.0151, Med: 1.2977, Spu: 0.0089, FD: 1.1179, Var: 0.0003, Ctx: 3, Train: 49.78%, Valid: 49.69%, Test In: 49.68% Test OOD1: 44.50% Test OOD2: 45.01% Test OOD3: 46.01% Test OOD4: 46.87% Test OOD5: 43.24% Test OOD6: 45.35% Test OOD7: 47.78% Test OOD8: 47.47% 
…
