…
da_med=0.5, lambda_spu=0.1, lambda_var=0.05, lamda=1.0, lr=0.01, num_layers=2, other_env_reduce='sample', pos_weight=5.0, result_name='citeseer_gcn_frontdoor_stage1_lr0.01_weight_decay5e-05_dropout0.1_hidden_channels32_K3', runs=2, seed=123, store_result=True, tau=1, use_bn=False, variant=False, weight_decay=5e-05)
using existing synthetic data...
dataset citeseer: all nodes 19962 | edges 54624 | classes 6 | feats 3713
train nodes 4990 | valid nodes 2495 | test in nodes 2496
test ood1 nodes 9981 
[INFO] env numbers: 6 train env numbers: 3
MODEL: GraphFrontDoor(
  (act_fn): ReLU()
  (input_proj): Linear(in_features=3713, out_features=32, bias=True)
  (backbone_layers): ModuleList(
    (0): FrontDoorBackboneLayer()
    (1): FrontDoorBackboneLayer()
  )
  (causal_adapter): Linear(in_features=32, out_features=32, bias=True)
  (spurious_adapter): Linear(in_features=32, out_features=32, bias=True)
  (causal_norm): LayerNorm((32,), eps=1e-05, elementwise_affine=True)
  (spurious_norm): LayerNorm((32,), eps=1e-05, elementwise_affine=True)
  (classifier): Linear(in_features=32, out_features=6, bias=True)
  (spurious_classifier): Linear(in_features=32, out_features=6, bias=True)
  (fd_classifier): Linear(in_features=32, out_features=6, bias=True)
  (query_proj): Linear(in_features=32, out_features=32, bias=True)
  (key_proj): Linear(in_features=32, out_features=32, bias=True)
  (value_proj): Linear(in_features=32, out_features=32, bias=True)
  (aug_norm): LayerNorm((32,), eps=1e-05, elementwise_affine=True)
)
[INFO] TensorBoard logging activated. Logs will be saved to: ./runs/citeseer/frontdoor/citeseer_gcn_frontdoor_stage1_lr0.01_weight_decay5e-05_dropout0.1_hidden_channels32_K3
Epoch: 00, Loss: 3.8421, Cls: 1.8902, Ind: 0.0031, Med: 0.9598, Spu: 0.0094, FD: 0.9796, Var: 0.0000, Ctx: 3, Train: 18.24%, Valid: 17.80%, Test In: 16.67% Test OOD1: 17.73% 
Epoch: 01, Loss: 3.5543, Cls: 1.7538, Ind: 0.0023, Med: 0.8638, Spu: 0.0024, FD: 0.9318, Var: 0.0000, Ctx: 3, Train: 20.36%, Valid: 21.08%, Test In: 20.91% Test OOD1: 22.67% 
…
