…
da_med=0.5, lambda_spu=0.1, lambda_var=0.05, lamda=1.0, lr=0.01, num_layers=2, other_env_reduce='sample', pos_weight=5.0, result_name='citeseer_gcn_frontdoor_stage1_lr0.01_weight_decay5e-05_dropout0.1_hidden_channels64_K2', runs=2, seed=123, store_result=True, tau=1, use_bn=False, variant=False, weight_decay=5e-05)
using existing synthetic data...
dataset citeseer: all nodes 19962 | edges 54624 | classes 6 | feats 3713
train nodes 4990 | valid nodes 2495 | test in nodes 2496
test ood1 nodes 9981 
[INFO] env numbers: 6 train env numbers: 3
MODEL: GraphFrontDoor(
  (act_fn): ReLU()
  (input_proj): Linear(in_features=3713, out_features=64, bias=True)
  (backbone_layers): ModuleList(
    (0): FrontDoorBackboneLayer()
    (1): FrontDoorBackboneLayer()
  )
  (causal_adapter): Linear(in_features=64, out_features=64, bias=True)
  (spurious_adapter): Linear(in_features=64, out_features=64, bias=True)
  (causal_norm): LayerNorm((64,), eps=1e-05, elementwise_affine=True)
  (spurious_norm): LayerNorm((64,), eps=1e-05, elementwise_affine=True)
  (classifier): Linear(in_features=64, out_features=6, bias=True)
  (spurious_classifier): Linear(in_features=64, out_features=6, bias=True)
  (fd_classifier): Linear(in_features=64, out_features=6, bias=True)
  (query_proj): Linear(in_features=64, out_features=64, bias=True)
  (key_proj): Linear(in_features=64, out_features=64, bias=True)
  (value_proj): Linear(in_features=64, out_features=64, bias=True)
  (aug_norm): LayerNorm((64,), eps=1e-05, elementwise_affine=True)
)
[INFO] TensorBoard logging activated. Logs will be saved to: ./runs/citeseer/frontdoor/citeseer_gcn_frontdoor_stage1_lr0.01_weight_decay5e-05_dropout0.1_hidden_channels64_K2
Epoch: 00, Loss: 3.8595, Cls: 1.9099, Ind: 0.0017, Med: 0.9448, Spu: 0.0098, FD: 0.9933, Var: 0.0000, Ctx: 2, Train: 23.45%, Valid: 23.37%, Test In: 23.16% Test OOD1: 27.17% 
Epoch: 01, Loss: 3.9156, Cls: 1.9243, Ind: 0.0061, Med: 0.9764, Spu: 0.0381, FD: 0.9707, Var: 0.0000, Ctx: 2, Train: 36.97%, Valid: 35.87%, Test In: 35.22% Test OOD1: 45.44% 
…
