…
_med=0.5, lambda_spu=0.1, lambda_var=0.05, lamda=1.0, lr=0.005, num_layers=2, other_env_reduce='sample', pos_weight=5.0, result_name='citeseer_gcn_frontdoor_stage1_lr0.005_weight_decay5e-05_dropout0.1_hidden_channels32_K2', runs=2, seed=123, store_result=True, tau=1, use_bn=False, variant=False, weight_decay=5e-05)
using existing synthetic data...
dataset citeseer: all nodes 19962 | edges 54624 | classes 6 | feats 3713
train nodes 4990 | valid nodes 2495 | test in nodes 2496
test ood1 nodes 9981 
[INFO] env numbers: 6 train env numbers: 3
MODEL: GraphFrontDoor(
  (act_fn): ReLU()
  (input_proj): Linear(in_features=3713, out_features=32, bias=True)
  (backbone_layers): ModuleList(
    (0): FrontDoorBackboneLayer()
    (1): FrontDoorBackboneLayer()
  )
  (causal_adapter): Linear(in_features=32, out_features=32, bias=True)
  (spurious_adapter): Linear(in_features=32, out_features=32, bias=True)
  (causal_norm): LayerNorm((32,), eps=1e-05, elementwise_affine=True)
  (spurious_norm): LayerNorm((32,), eps=1e-05, elementwise_affine=True)
  (classifier): Linear(in_features=32, out_features=6, bias=True)
  (spurious_classifier): Linear(in_features=32, out_features=6, bias=True)
  (fd_classifier): Linear(in_features=32, out_features=6, bias=True)
  (query_proj): Linear(in_features=32, out_features=32, bias=True)
  (key_proj): Linear(in_features=32, out_features=32, bias=True)
  (value_proj): Linear(in_features=32, out_features=32, bias=True)
  (aug_norm): LayerNorm((32,), eps=1e-05, elementwise_affine=True)
)
[INFO] TensorBoard logging activated. Logs will be saved to: ./runs/citeseer/frontdoor/citeseer_gcn_frontdoor_stage1_lr0.005_weight_decay5e-05_dropout0.1_hidden_channels32_K2
Epoch: 00, Loss: 3.8424, Cls: 1.8900, Ind: 0.0031, Med: 0.9598, Spu: 0.0094, FD: 0.9802, Var: 0.0000, Ctx: 2, Train: 32.51%, Valid: 31.90%, Test In: 31.21% Test OOD1: 26.85% 
Epoch: 01, Loss: 3.5819, Cls: 1.7654, Ind: 0.0024, Med: 0.8909, Spu: 0.0035, FD: 0.9197, Var: 0.0000, Ctx: 2, Train: 18.48%, Valid: 18.04%, Test In: 16.95% Test OOD1: 21.37% 
…
