…
a_med=0.5, lambda_spu=0.1, lambda_var=0.05, lamda=1.0, lr=0.01, num_layers=2, other_env_reduce='sample', pos_weight=5.0, result_name='pubmed_gat_frontdoor_stage1_lr0.01_weight_decay5e-05_dropout0.2_hidden_channels32_K2', runs=2, seed=123, store_result=True, tau=1, use_bn=False, variant=False, weight_decay=5e-05)
using existing synthetic data...
dataset pubmed: all nodes 118302 | edges 531888 | classes 3 | feats 510
train nodes 29575 | valid nodes 14788 | test in nodes 14788
test ood1 nodes 59151 
[INFO] env numbers: 6 train env numbers: 3
MODEL: GraphFrontDoor(
  (act_fn): ReLU()
  (input_proj): Linear(in_features=510, out_features=32, bias=True)
  (backbone_layers): ModuleList(
    (0): FrontDoorBackboneLayer(
      (leakyrelu): LeakyReLU(negative_slope=0.01)
    )
    (1): FrontDoorBackboneLayer(
      (leakyrelu): LeakyReLU(negative_slope=0.01)
    )
  )
  (causal_adapter): Linear(in_features=32, out_features=32, bias=True)
  (spurious_adapter): Linear(in_features=32, out_features=32, bias=True)
  (causal_norm): LayerNorm((32,), eps=1e-05, elementwise_affine=True)
  (spurious_norm): LayerNorm((32,), eps=1e-05, elementwise_affine=True)
  (classifier): Linear(in_features=32, out_features=3, bias=True)
  (spurious_classifier): Linear(in_features=32, out_features=3, bias=True)
  (fd_classifier): Linear(in_features=32, out_features=3, bias=True)
  (query_proj): Linear(in_features=32, out_features=32, bias=True)
  (key_proj): Linear(in_features=32, out_features=32, bias=True)
  (value_proj): Linear(in_features=32, out_features=32, bias=True)
  (aug_norm): LayerNorm((32,), eps=1e-05, elementwise_affine=True)
)
[INFO] TensorBoard logging activated. Logs will be saved to: ./runs/pubmed/frontdoor/pubmed_gat_frontdoor_stage1_lr0.01_weight_decay5e-05_dropout0.2_hidden_channels32_K2
Epoch: 00, Loss: 2.5200, Cls: 1.2386, Ind: 0.0007, Med: 0.6841, Spu: 0.0103, FD: 0.5863, Var: 0.0001, Ctx: 2, Train: 62.20%, Valid: 61.72%, Test In: 62.73% Test OOD1: 64.40% 
Epoch: 01, Loss: 2.1085, Cls: 1.0416, Ind: 0.0020, Med: 0.5207, Spu: 0.0083, FD: 0.5359, Var: 0.0001, Ctx: 2, Train: 69.35%, Valid: 68.76%, Test In: 69.74% Test OOD1: 65.67% 
…
