…
a_med=0.5, lambda_spu=0.1, lambda_var=0.05, lamda=1.0, lr=0.01, num_layers=2, other_env_reduce='sample', pos_weight=5.0, result_name='pubmed_gat_frontdoor_stage1_lr0.01_weight_decay5e-05_dropout0.2_hidden_channels64_K2', runs=2, seed=123, store_result=True, tau=1, use_bn=False, variant=False, weight_decay=5e-05)
using existing synthetic data...
dataset pubmed: all nodes 118302 | edges 531888 | classes 3 | feats 510
train nodes 29575 | valid nodes 14788 | test in nodes 14788
test ood1 nodes 59151 
[INFO] env numbers: 6 train env numbers: 3
MODEL: GraphFrontDoor(
  (act_fn): ReLU()
  (input_proj): Linear(in_features=510, out_features=64, bias=True)
  (backbone_layers): ModuleList(
    (0): FrontDoorBackboneLayer(
      (leakyrelu): LeakyReLU(negative_slope=0.01)
    )
    (1): FrontDoorBackboneLayer(
      (leakyrelu): LeakyReLU(negative_slope=0.01)
    )
  )
  (causal_adapter): Linear(in_features=64, out_features=64, bias=True)
  (spurious_adapter): Linear(in_features=64, out_features=64, bias=True)
  (causal_norm): LayerNorm((64,), eps=1e-05, elementwise_affine=True)
  (spurious_norm): LayerNorm((64,), eps=1e-05, elementwise_affine=True)
  (classifier): Linear(in_features=64, out_features=3, bias=True)
  (spurious_classifier): Linear(in_features=64, out_features=3, bias=True)
  (fd_classifier): Linear(in_features=64, out_features=3, bias=True)
  (query_proj): Linear(in_features=64, out_features=64, bias=True)
  (key_proj): Linear(in_features=64, out_features=64, bias=True)
  (value_proj): Linear(in_features=64, out_features=64, bias=True)
  (aug_norm): LayerNorm((64,), eps=1e-05, elementwise_affine=True)
)
[INFO] TensorBoard logging activated. Logs will be saved to: ./runs/pubmed/frontdoor/pubmed_gat_frontdoor_stage1_lr0.01_weight_decay5e-05_dropout0.2_hidden_channels64_K2
Epoch: 00, Loss: 2.3436, Cls: 1.1376, Ind: 0.0005, Med: 0.5935, Spu: 0.0084, FD: 0.6036, Var: 0.0001, Ctx: 2, Train: 68.31%, Valid: 68.21%, Test In: 68.41% Test OOD1: 49.35% 
Epoch: 01, Loss: 2.1471, Cls: 1.0279, Ind: 0.0020, Med: 0.5657, Spu: 0.0311, FD: 0.5202, Var: 0.0001, Ctx: 2, Train: 71.16%, Valid: 70.82%, Test In: 71.48% Test OOD1: 68.31% 
…
