…
esult_name='pubmed_stage1_lr0.01_weight_decay5e-05_dropout0.2_lamda1.0_K4_hidden_channels64', runs=3, seed=2024, store_result=True, tau=2.0, use_bn=False, variant=False, weight_decay=5e-05)
using existing synthetic data...
dataset pubmed: all nodes 118302 | edges 531888 | classes 3 | feats 510
train nodes 29575 | valid nodes 14788 | test in nodes 14788
test ood1 nodes 59151 
[INFO] env numbers: 6 train env numbers: 3
MODEL: CaNet(
  (experts): ModuleList(
    (0): ExpertNet(
      (convs): ModuleList(
        (0): CaNetConv()
        (1): CaNetConv()
      )
      (fcs): ModuleList(
        (0): Linear(in_features=510, out_features=64, bias=True)
        (1): Linear(in_features=64, out_features=3, bias=True)
      )
      (act_fn): ReLU()
    )
    (1): ExpertNet(
      (convs): ModuleList(
        (0): CaNetConv()
        (1): CaNetConv()
      )
      (fcs): ModuleList(
        (0): Linear(in_features=510, out_features=64, bias=True)
        (1): Linear(in_features=64, out_features=3, bias=True)
      )
      (act_fn): ReLU()
    )
    (2): ExpertNet(
      (convs): ModuleList(
        (0): CaNetConv()
        (1): CaNetConv()
      )
      (fcs): ModuleList(
        (0): Linear(in_features=510, out_features=64, bias=True)
        (1): Linear(in_features=64, out_features=3, bias=True)
      )
      (act_fn): ReLU()
    )
    (3): ExpertNet(
      (convs): ModuleList(
        (0): CaNetConv()
        (1): CaNetConv()
      )
      (fcs): ModuleList(
        (0): Linear(in_features=510, out_features=64, bias=True)
        (1): Linear(in_features=64, out_features=3, bias=True)
      )
      (act_fn): ReLU()
    )
  )
  (gate): Sequential(
    (0): Linear(in_features=510, out_features=64, bias=True)
    (1): ReLU()
    (2): Linear(in_features=64, out_features=4, bias=True)
  )
)
[INFO] TensorBoard logging activated. Logs will be saved to: ./runs/pubmed/Apr16_05-09-21_lamda_1.0
Epoch: 00, Loss: 2.1959, Train: 69.71%, Valid: 69.31%, Test In: 69.82% Test OOD1: 47.85% 
Epoch: 01, Loss: 2.0937, Train: 71.89%, Valid: 71.49%, Test In: 72.09% Test OOD1: 50.27% 
Epoch: 02, Loss: 1.9377, Train: 73.06%, Valid: 72.54%, Test In: 73.33% Test OOD1: 53.08% 
…
