…
lt_name='pubmed_stage1_lr0.001_weight_decay0.0005_dropout0.1_lamda0.5_K4_hidden_channels64', runs=3, seed=2024, store_result=True, tau=2.0, use_bn=False, variant=False, weight_decay=0.0005)
using existing synthetic data...
dataset pubmed: all nodes 118302 | edges 531888 | classes 3 | feats 510
train nodes 29575 | valid nodes 14788 | test in nodes 14788
test ood1 nodes 59151 
[INFO] env numbers: 6 train env numbers: 3
MODEL: CaNet(
  (experts): ModuleList(
    (0): ExpertNet(
      (convs): ModuleList(
        (0): CaNetConv()
        (1): CaNetConv()
      )
      (fcs): ModuleList(
        (0): Linear(in_features=510, out_features=64, bias=True)
        (1): Linear(in_features=64, out_features=3, bias=True)
      )
      (act_fn): ReLU()
    )
    (1): ExpertNet(
      (convs): ModuleList(
        (0): CaNetConv()
        (1): CaNetConv()
      )
      (fcs): ModuleList(
        (0): Linear(in_features=510, out_features=64, bias=True)
        (1): Linear(in_features=64, out_features=3, bias=True)
      )
      (act_fn): ReLU()
    )
    (2): ExpertNet(
      (convs): ModuleList(
        (0): CaNetConv()
        (1): CaNetConv()
      )
      (fcs): ModuleList(
        (0): Linear(in_features=510, out_features=64, bias=True)
        (1): Linear(in_features=64, out_features=3, bias=True)
      )
      (act_fn): ReLU()
    )
    (3): ExpertNet(
      (convs): ModuleList(
        (0): CaNetConv()
        (1): CaNetConv()
      )
      (fcs): ModuleList(
        (0): Linear(in_features=510, out_features=64, bias=True)
        (1): Linear(in_features=64, out_features=3, bias=True)
      )
      (act_fn): ReLU()
    )
  )
  (gate): Sequential(
    (0): Linear(in_features=510, out_features=64, bias=True)
    (1): ReLU()
    (2): Linear(in_features=64, out_features=4, bias=True)
  )
)
[INFO] TensorBoard logging activated. Logs will be saved to: ./runs/pubmed/Apr16_14-58-22_lamda_0.5
Epoch: 00, Loss: 1.6470, Train: 62.39%, Valid: 61.58%, Test In: 62.44% Test OOD1: 44.10% 
Epoch: 01, Loss: 1.6389, Train: 66.66%, Valid: 65.78%, Test In: 66.63% Test OOD1: 46.45% 
Epoch: 02, Loss: 1.6311, Train: 68.57%, Valid: 67.87%, Test In: 68.65% Test OOD1: 47.37% 
…
