…
lt_name='pubmed_stage1_lr0.001_weight_decay0.0005_dropout0.3_lamda0.5_K4_hidden_channels32', runs=3, seed=2024, store_result=True, tau=2.0, use_bn=False, variant=False, weight_decay=0.0005)
using existing synthetic data...
dataset pubmed: all nodes 118302 | edges 531888 | classes 3 | feats 510
train nodes 29575 | valid nodes 14788 | test in nodes 14788
test ood1 nodes 59151 
[INFO] env numbers: 6 train env numbers: 3
MODEL: CaNet(
  (experts): ModuleList(
    (0): ExpertNet(
      (convs): ModuleList(
        (0): CaNetConv()
        (1): CaNetConv()
      )
      (fcs): ModuleList(
        (0): Linear(in_features=510, out_features=32, bias=True)
        (1): Linear(in_features=32, out_features=3, bias=True)
      )
      (act_fn): ReLU()
    )
    (1): ExpertNet(
      (convs): ModuleList(
        (0): CaNetConv()
        (1): CaNetConv()
      )
      (fcs): ModuleList(
        (0): Linear(in_features=510, out_features=32, bias=True)
        (1): Linear(in_features=32, out_features=3, bias=True)
      )
      (act_fn): ReLU()
    )
    (2): ExpertNet(
      (convs): ModuleList(
        (0): CaNetConv()
        (1): CaNetConv()
      )
      (fcs): ModuleList(
        (0): Linear(in_features=510, out_features=32, bias=True)
        (1): Linear(in_features=32, out_features=3, bias=True)
      )
      (act_fn): ReLU()
    )
    (3): ExpertNet(
      (convs): ModuleList(
        (0): CaNetConv()
        (1): CaNetConv()
      )
      (fcs): ModuleList(
        (0): Linear(in_features=510, out_features=32, bias=True)
        (1): Linear(in_features=32, out_features=3, bias=True)
      )
      (act_fn): ReLU()
    )
  )
  (gate): Sequential(
    (0): Linear(in_features=510, out_features=64, bias=True)
    (1): ReLU()
    (2): Linear(in_features=64, out_features=4, bias=True)
  )
)
[INFO] TensorBoard logging activated. Logs will be saved to: ./runs/pubmed/Apr16_18-26-33_lamda_0.5
Epoch: 00, Loss: 1.6533, Train: 39.39%, Valid: 39.07%, Test In: 39.12% Test OOD1: 39.67% 
Epoch: 01, Loss: 1.6484, Train: 40.01%, Valid: 39.91%, Test In: 39.89% Test OOD1: 39.99% 
Epoch: 02, Loss: 1.6439, Train: 40.34%, Valid: 40.11%, Test In: 40.21% Test OOD1: 40.99% 
…
