…
sult_name='pubmed_stage1_lr0.001_weight_decay5e-05_dropout0.1_lamda0.1_K4_hidden_channels32', runs=3, seed=2024, store_result=True, tau=2.0, use_bn=False, variant=False, weight_decay=5e-05)
using existing synthetic data...
dataset pubmed: all nodes 118302 | edges 531888 | classes 3 | feats 510
train nodes 29575 | valid nodes 14788 | test in nodes 14788
test ood1 nodes 59151 
[INFO] env numbers: 6 train env numbers: 3
MODEL: CaNet(
  (experts): ModuleList(
    (0): ExpertNet(
      (convs): ModuleList(
        (0): CaNetConv()
        (1): CaNetConv()
      )
      (fcs): ModuleList(
        (0): Linear(in_features=510, out_features=32, bias=True)
        (1): Linear(in_features=32, out_features=3, bias=True)
      )
      (act_fn): ReLU()
    )
    (1): ExpertNet(
      (convs): ModuleList(
        (0): CaNetConv()
        (1): CaNetConv()
      )
      (fcs): ModuleList(
        (0): Linear(in_features=510, out_features=32, bias=True)
        (1): Linear(in_features=32, out_features=3, bias=True)
      )
      (act_fn): ReLU()
    )
    (2): ExpertNet(
      (convs): ModuleList(
        (0): CaNetConv()
        (1): CaNetConv()
      )
      (fcs): ModuleList(
        (0): Linear(in_features=510, out_features=32, bias=True)
        (1): Linear(in_features=32, out_features=3, bias=True)
      )
      (act_fn): ReLU()
    )
    (3): ExpertNet(
      (convs): ModuleList(
        (0): CaNetConv()
        (1): CaNetConv()
      )
      (fcs): ModuleList(
        (0): Linear(in_features=510, out_features=32, bias=True)
        (1): Linear(in_features=32, out_features=3, bias=True)
      )
      (act_fn): ReLU()
    )
  )
  (gate): Sequential(
    (0): Linear(in_features=510, out_features=64, bias=True)
    (1): ReLU()
    (2): Linear(in_features=64, out_features=4, bias=True)
  )
)
[INFO] TensorBoard logging activated. Logs will be saved to: ./runs/pubmed/Apr16_20-08-50_lamda_0.1
Epoch: 00, Loss: 1.2124, Train: 39.57%, Valid: 39.24%, Test In: 39.25% Test OOD1: 39.64% 
Epoch: 01, Loss: 1.2085, Train: 40.03%, Valid: 39.94%, Test In: 39.90% Test OOD1: 40.06% 
Epoch: 02, Loss: 1.2048, Train: 40.61%, Valid: 40.34%, Test In: 40.54% Test OOD1: 42.19% 
…
