…
lambda_spu=0.1, lambda_var=0.05, lamda=1.0, lr=0.001, num_layers=2, other_env_reduce='sample', pos_weight=5.0, result_name='arxiv_gat_frontdoor_stage1_lr0.001_weight_decay5e-05_dropout0.1_hidden_channels64_K2', runs=2, seed=123, store_result=True, tau=1, use_bn=False, variant=False, weight_decay=5e-05)
dataset arxiv: all nodes 169343 | edges 1166243 | classes 40 | feats 128
train nodes 15985 | valid nodes 7993 | test in nodes 7993
test ood1 nodes 21189 test ood2 nodes 37781 test ood3 nodes 78402 
[INFO] env numbers: 7 train env numbers: 3
MODEL: GraphFrontDoor(
  (act_fn): ReLU()
  (input_proj): Linear(in_features=128, out_features=64, bias=True)
  (backbone_layers): ModuleList(
    (0): FrontDoorBackboneLayer(
      (leakyrelu): LeakyReLU(negative_slope=0.01)
    )
    (1): FrontDoorBackboneLayer(
      (leakyrelu): LeakyReLU(negative_slope=0.01)
    )
  )
  (causal_adapter): Linear(in_features=64, out_features=64, bias=True)
  (spurious_adapter): Linear(in_features=64, out_features=64, bias=True)
  (causal_norm): LayerNorm((64,), eps=1e-05, elementwise_affine=True)
  (spurious_norm): LayerNorm((64,), eps=1e-05, elementwise_affine=True)
  (classifier): Linear(in_features=64, out_features=40, bias=True)
  (spurious_classifier): Linear(in_features=64, out_features=40, bias=True)
  (fd_classifier): Linear(in_features=64, out_features=40, bias=True)
  (query_proj): Linear(in_features=64, out_features=64, bias=True)
  (key_proj): Linear(in_features=64, out_features=64, bias=True)
  (value_proj): Linear(in_features=64, out_features=64, bias=True)
  (aug_norm): LayerNorm((64,), eps=1e-05, elementwise_affine=True)
)
[INFO] TensorBoard logging activated. Logs will be saved to: ./runs/arxiv/frontdoor/arxiv_gat_frontdoor_stage1_lr0.001_weight_decay5e-05_dropout0.1_hidden_channels64_K2
Epoch: 00, Loss: 7.6107, Cls: 3.7453, Ind: 0.0095, Med: 1.9484, Spu: 0.0156, FD: 1.8920, Var: 0.0000, Ctx: 2, Train: 12.68%, Valid: 13.01%, Test In: 12.87% Test OOD1: 13.01% Test OOD2: 11.96% Test OOD3: 15.66% 
…
