…
=0.5, lambda_spu=0.1, lambda_var=0.05, lamda=1.0, lr=0.01, num_layers=2, other_env_reduce='sample', pos_weight=5.0, result_name='twitch_gcn_frontdoor_stage1_lr0.01_weight_decay5e-05_dropout0.1_hidden_channels64_K2', runs=2, seed=2024, store_result=True, tau=1, use_bn=False, variant=False, weight_decay=5e-05)
dataset twitch: all nodes 34120 | edges 892346 | classes 2 | feats 128
train nodes 7897 | valid nodes 3949 | test in nodes 3949
test ood1 nodes 4648 test ood2 nodes 6551 test ood3 nodes 7126 
[INFO] env numbers: 6 train env numbers: 3
MODEL: GraphFrontDoor(
  (act_fn): ReLU()
  (input_proj): Linear(in_features=128, out_features=64, bias=True)
  (backbone_layers): ModuleList(
    (0): FrontDoorBackboneLayer()
    (1): FrontDoorBackboneLayer()
  )
  (causal_adapter): Linear(in_features=64, out_features=64, bias=True)
  (spurious_adapter): Linear(in_features=64, out_features=64, bias=True)
  (causal_norm): LayerNorm((64,), eps=1e-05, elementwise_affine=True)
  (spurious_norm): LayerNorm((64,), eps=1e-05, elementwise_affine=True)
  (classifier): Linear(in_features=64, out_features=2, bias=True)
  (spurious_classifier): Linear(in_features=64, out_features=2, bias=True)
  (fd_classifier): Linear(in_features=64, out_features=2, bias=True)
  (query_proj): Linear(in_features=64, out_features=64, bias=True)
  (key_proj): Linear(in_features=64, out_features=64, bias=True)
  (value_proj): Linear(in_features=64, out_features=64, bias=True)
  (aug_norm): LayerNorm((64,), eps=1e-05, elementwise_affine=True)
)
[INFO] TensorBoard logging activated. Logs will be saved to: ./runs/twitch/frontdoor/twitch_gcn_frontdoor_stage1_lr0.01_weight_decay5e-05_dropout0.1_hidden_channels64_K2
Epoch: 00, Loss: 3.4043, Cls: 1.6831, Ind: 0.0013, Med: 0.7863, Spu: 0.0044, FD: 0.9290, Var: 0.0001, Ctx: 2, Train: 57.75%, Valid: 57.76%, Test In: 56.97% Test OOD1: 61.21% Test OOD2: 50.89% Test OOD3: 57.36% 
…
