…
, lambda_med=0.5, lambda_spu=0.1, lambda_var=0.05, lamda=1.0, lr=0.005, num_layers=2, other_env_reduce='sample', pos_weight=5.0, result_name='cora_gcn_frontdoor_stage1_lr0.005_weight_decay5e-05_dropout0.1_hidden_channels32_K3', runs=2, seed=123, store_result=True, tau=1, use_bn=False, variant=False, weight_decay=5e-05)
using existing synthetic data...
dataset cora: all nodes 16248 | edges 63336 | classes 7 | feats 1443
train nodes 4062 | valid nodes 2031 | test in nodes 2031
test ood1 nodes 8124 
[INFO] env numbers: 6 train env numbers: 3
MODEL: GraphFrontDoor(
  (act_fn): ReLU()
  (input_proj): Linear(in_features=1443, out_features=32, bias=True)
  (backbone_layers): ModuleList(
    (0): FrontDoorBackboneLayer()
    (1): FrontDoorBackboneLayer()
  )
  (causal_adapter): Linear(in_features=32, out_features=32, bias=True)
  (spurious_adapter): Linear(in_features=32, out_features=32, bias=True)
  (causal_norm): LayerNorm((32,), eps=1e-05, elementwise_affine=True)
  (spurious_norm): LayerNorm((32,), eps=1e-05, elementwise_affine=True)
  (classifier): Linear(in_features=32, out_features=7, bias=True)
  (spurious_classifier): Linear(in_features=32, out_features=7, bias=True)
  (fd_classifier): Linear(in_features=32, out_features=7, bias=True)
  (query_proj): Linear(in_features=32, out_features=32, bias=True)
  (key_proj): Linear(in_features=32, out_features=32, bias=True)
  (value_proj): Linear(in_features=32, out_features=32, bias=True)
  (aug_norm): LayerNorm((32,), eps=1e-05, elementwise_affine=True)
)
[INFO] TensorBoard logging activated. Logs will be saved to: ./runs/cora/frontdoor/cora_gcn_frontdoor_stage1_lr0.005_weight_decay5e-05_dropout0.1_hidden_channels32_K3
Epoch: 00, Loss: 3.9052, Cls: 1.9113, Ind: 0.0030, Med: 0.9535, Spu: 0.0204, FD: 1.0169, Var: 0.0000, Ctx: 3, Train: 30.87%, Valid: 29.10%, Test In: 29.99% Test OOD1: 30.21% 
Epoch: 01, Loss: 3.6460, Cls: 1.8058, Ind: 0.0027, Med: 0.8972, Spu: 0.0103, FD: 0.9300, Var: 0.0000, Ctx: 3, Train: 38.92%, Valid: 37.27%, Test In: 37.52% Test OOD1: 36.90% 
…
