…
result_name='citeseer_stage1_lr0.01_weight_decay0.0005_dropout0.1_lamda0.1_K4_hidden_channels64', runs=3, seed=2024, store_result=True, tau=1, use_bn=False, variant=False, weight_decay=0.0005)
using existing synthetic data...
dataset citeseer: all nodes 19962 | edges 54624 | classes 6 | feats 3713
train nodes 4990 | valid nodes 2495 | test in nodes 2496
test ood1 nodes 9981 
[INFO] env numbers: 6 train env numbers: 3
MODEL: CaNet(
  (experts): ModuleList(
    (0): ExpertNet(
      (convs): ModuleList(
        (0): CaNetConv()
        (1): CaNetConv()
      )
      (fcs): ModuleList(
        (0): Linear(in_features=3713, out_features=64, bias=True)
        (1): Linear(in_features=64, out_features=6, bias=True)
      )
      (act_fn): ReLU()
    )
    (1): ExpertNet(
      (convs): ModuleList(
        (0): CaNetConv()
        (1): CaNetConv()
      )
      (fcs): ModuleList(
        (0): Linear(in_features=3713, out_features=64, bias=True)
        (1): Linear(in_features=64, out_features=6, bias=True)
      )
      (act_fn): ReLU()
    )
    (2): ExpertNet(
      (convs): ModuleList(
        (0): CaNetConv()
        (1): CaNetConv()
      )
      (fcs): ModuleList(
        (0): Linear(in_features=3713, out_features=64, bias=True)
        (1): Linear(in_features=64, out_features=6, bias=True)
      )
      (act_fn): ReLU()
    )
    (3): ExpertNet(
      (convs): ModuleList(
        (0): CaNetConv()
        (1): CaNetConv()
      )
      (fcs): ModuleList(
        (0): Linear(in_features=3713, out_features=64, bias=True)
        (1): Linear(in_features=64, out_features=6, bias=True)
      )
      (act_fn): ReLU()
    )
  )
  (gate): Sequential(
    (0): Linear(in_features=3713, out_features=64, bias=True)
    (1): ReLU()
    (2): Linear(in_features=64, out_features=4, bias=True)
  )
)
[INFO] TensorBoard logging activated. Logs will be saved to: ./runs/citeseer/Apr15_16-29-54_lamda_0.1
Epoch: 00, Loss: 1.9717, Train: 21.10%, Valid: 20.76%, Test In: 21.31% Test OOD1: 21.07% 
Epoch: 01, Loss: 1.9509, Train: 21.24%, Valid: 21.04%, Test In: 21.47% Test OOD1: 24.38% 
Epoch: 02, Loss: 1.9142, Train: 28.94%, Valid: 29.46%, Test In: 28.57% Test OOD1: 32.96% 
…
