…
, result_name='citeseer_stage1_lr0.01_weight_decay5e-05_dropout0.0_lamda2.0_K4_hidden_channels64', runs=3, seed=2024, store_result=True, tau=1, use_bn=False, variant=False, weight_decay=5e-05)
using existing synthetic data...
dataset citeseer: all nodes 19962 | edges 54624 | classes 6 | feats 3713
train nodes 4990 | valid nodes 2495 | test in nodes 2496
test ood1 nodes 9981 
[INFO] env numbers: 6 train env numbers: 3
MODEL: CaNet(
  (experts): ModuleList(
    (0): ExpertNet(
      (convs): ModuleList(
        (0): CaNetConv()
        (1): CaNetConv()
      )
      (fcs): ModuleList(
        (0): Linear(in_features=3713, out_features=64, bias=True)
        (1): Linear(in_features=64, out_features=6, bias=True)
      )
      (act_fn): ReLU()
    )
    (1): ExpertNet(
      (convs): ModuleList(
        (0): CaNetConv()
        (1): CaNetConv()
      )
      (fcs): ModuleList(
        (0): Linear(in_features=3713, out_features=64, bias=True)
        (1): Linear(in_features=64, out_features=6, bias=True)
      )
      (act_fn): ReLU()
    )
    (2): ExpertNet(
      (convs): ModuleList(
        (0): CaNetConv()
        (1): CaNetConv()
      )
      (fcs): ModuleList(
        (0): Linear(in_features=3713, out_features=64, bias=True)
        (1): Linear(in_features=64, out_features=6, bias=True)
      )
      (act_fn): ReLU()
    )
    (3): ExpertNet(
      (convs): ModuleList(
        (0): CaNetConv()
        (1): CaNetConv()
      )
      (fcs): ModuleList(
        (0): Linear(in_features=3713, out_features=64, bias=True)
        (1): Linear(in_features=64, out_features=6, bias=True)
      )
      (act_fn): ReLU()
    )
  )
  (gate): Sequential(
    (0): Linear(in_features=3713, out_features=64, bias=True)
    (1): ReLU()
    (2): Linear(in_features=64, out_features=4, bias=True)
  )
)
[INFO] TensorBoard logging activated. Logs will be saved to: ./runs/citeseer/Apr15_19-08-56_lamda_2.0
Epoch: 00, Loss: 5.3774, Train: 21.14%, Valid: 20.80%, Test In: 21.31% Test OOD1: 21.12% 
Epoch: 01, Loss: 5.3027, Train: 32.99%, Valid: 31.66%, Test In: 31.57% Test OOD1: 35.26% 
Epoch: 02, Loss: 5.1486, Train: 43.63%, Valid: 42.20%, Test In: 42.51% Test OOD1: 48.00% 
…
