…
esult_name='citeseer_stage1_lr0.005_weight_decay0.0005_dropout0.1_lamda0.5_K4_hidden_channels64', runs=3, seed=2024, store_result=True, tau=1, use_bn=False, variant=False, weight_decay=0.0005)
using existing synthetic data...
dataset citeseer: all nodes 19962 | edges 54624 | classes 6 | feats 3713
train nodes 4990 | valid nodes 2495 | test in nodes 2496
test ood1 nodes 9981 
[INFO] env numbers: 6 train env numbers: 3
MODEL: CaNet(
  (experts): ModuleList(
    (0): ExpertNet(
      (convs): ModuleList(
        (0): CaNetConv()
        (1): CaNetConv()
      )
      (fcs): ModuleList(
        (0): Linear(in_features=3713, out_features=64, bias=True)
        (1): Linear(in_features=64, out_features=6, bias=True)
      )
      (act_fn): ReLU()
    )
    (1): ExpertNet(
      (convs): ModuleList(
        (0): CaNetConv()
        (1): CaNetConv()
      )
      (fcs): ModuleList(
        (0): Linear(in_features=3713, out_features=64, bias=True)
        (1): Linear(in_features=64, out_features=6, bias=True)
      )
      (act_fn): ReLU()
    )
    (2): ExpertNet(
      (convs): ModuleList(
        (0): CaNetConv()
        (1): CaNetConv()
      )
      (fcs): ModuleList(
        (0): Linear(in_features=3713, out_features=64, bias=True)
        (1): Linear(in_features=64, out_features=6, bias=True)
      )
      (act_fn): ReLU()
    )
    (3): ExpertNet(
      (convs): ModuleList(
        (0): CaNetConv()
        (1): CaNetConv()
      )
      (fcs): ModuleList(
        (0): Linear(in_features=3713, out_features=64, bias=True)
        (1): Linear(in_features=64, out_features=6, bias=True)
      )
      (act_fn): ReLU()
    )
  )
  (gate): Sequential(
    (0): Linear(in_features=3713, out_features=64, bias=True)
    (1): ReLU()
    (2): Linear(in_features=64, out_features=4, bias=True)
  )
)
[INFO] TensorBoard logging activated. Logs will be saved to: ./runs/citeseer/Apr15_21-46-59_lamda_0.5
Epoch: 00, Loss: 2.6888, Train: 21.10%, Valid: 20.76%, Test In: 21.31% Test OOD1: 21.07% 
Epoch: 01, Loss: 2.6731, Train: 21.14%, Valid: 20.80%, Test In: 21.39% Test OOD1: 21.17% 
Epoch: 02, Loss: 2.6515, Train: 22.22%, Valid: 21.84%, Test In: 22.96% Test OOD1: 27.65% 
…
