…
a_med=0.5, lambda_spu=0.1, lambda_var=0.05, lamda=1.0, lr=0.01, num_layers=2, other_env_reduce='sample', pos_weight=5.0, result_name='pubmed_gcn_frontdoor_stage1_lr0.01_weight_decay5e-05_dropout0.2_hidden_channels32_K3', runs=2, seed=123, store_result=True, tau=1, use_bn=False, variant=False, weight_decay=5e-05)
using existing synthetic data...
dataset pubmed: all nodes 118302 | edges 531888 | classes 3 | feats 510
train nodes 29575 | valid nodes 14788 | test in nodes 14788
test ood1 nodes 59151 
[INFO] env numbers: 6 train env numbers: 3
MODEL: GraphFrontDoor(
  (act_fn): ReLU()
  (input_proj): Linear(in_features=510, out_features=32, bias=True)
  (backbone_layers): ModuleList(
    (0): FrontDoorBackboneLayer()
    (1): FrontDoorBackboneLayer()
  )
  (causal_adapter): Linear(in_features=32, out_features=32, bias=True)
  (spurious_adapter): Linear(in_features=32, out_features=32, bias=True)
  (causal_norm): LayerNorm((32,), eps=1e-05, elementwise_affine=True)
  (spurious_norm): LayerNorm((32,), eps=1e-05, elementwise_affine=True)
  (classifier): Linear(in_features=32, out_features=3, bias=True)
  (spurious_classifier): Linear(in_features=32, out_features=3, bias=True)
  (fd_classifier): Linear(in_features=32, out_features=3, bias=True)
  (query_proj): Linear(in_features=32, out_features=32, bias=True)
  (key_proj): Linear(in_features=32, out_features=32, bias=True)
  (value_proj): Linear(in_features=32, out_features=32, bias=True)
  (aug_norm): LayerNorm((32,), eps=1e-05, elementwise_affine=True)
)
[INFO] TensorBoard logging activated. Logs will be saved to: ./runs/pubmed/frontdoor/pubmed_gcn_frontdoor_stage1_lr0.01_weight_decay5e-05_dropout0.2_hidden_channels32_K3
Epoch: 00, Loss: 2.4243, Cls: 1.1873, Ind: 0.0038, Med: 0.5545, Spu: 0.0118, FD: 0.6668, Var: 0.0002, Ctx: 3, Train: 42.11%, Valid: 42.18%, Test In: 42.21% Test OOD1: 57.91% 
Epoch: 01, Loss: 2.1211, Cls: 1.0464, Ind: 0.0045, Med: 0.5159, Spu: 0.0071, FD: 0.5470, Var: 0.0001, Ctx: 3, Train: 49.98%, Valid: 49.95%, Test In: 50.10% Test OOD1: 60.02% 
…
