…
med=0.5, lambda_spu=0.1, lambda_var=0.05, lamda=1.0, lr=0.005, num_layers=2, other_env_reduce='sample', pos_weight=5.0, result_name='pubmed_gcn_frontdoor_stage1_lr0.005_weight_decay5e-05_dropout0.2_hidden_channels64_K3', runs=2, seed=123, store_result=True, tau=1, use_bn=False, variant=False, weight_decay=5e-05)
using existing synthetic data...
dataset pubmed: all nodes 118302 | edges 531888 | classes 3 | feats 510
train nodes 29575 | valid nodes 14788 | test in nodes 14788
test ood1 nodes 59151 
[INFO] env numbers: 6 train env numbers: 3
MODEL: GraphFrontDoor(
  (act_fn): ReLU()
  (input_proj): Linear(in_features=510, out_features=64, bias=True)
  (backbone_layers): ModuleList(
    (0): FrontDoorBackboneLayer()
    (1): FrontDoorBackboneLayer()
  )
  (causal_adapter): Linear(in_features=64, out_features=64, bias=True)
  (spurious_adapter): Linear(in_features=64, out_features=64, bias=True)
  (causal_norm): LayerNorm((64,), eps=1e-05, elementwise_affine=True)
  (spurious_norm): LayerNorm((64,), eps=1e-05, elementwise_affine=True)
  (classifier): Linear(in_features=64, out_features=3, bias=True)
  (spurious_classifier): Linear(in_features=64, out_features=3, bias=True)
  (fd_classifier): Linear(in_features=64, out_features=3, bias=True)
  (query_proj): Linear(in_features=64, out_features=64, bias=True)
  (key_proj): Linear(in_features=64, out_features=64, bias=True)
  (value_proj): Linear(in_features=64, out_features=64, bias=True)
  (aug_norm): LayerNorm((64,), eps=1e-05, elementwise_affine=True)
)
[INFO] TensorBoard logging activated. Logs will be saved to: ./runs/pubmed/frontdoor/pubmed_gcn_frontdoor_stage1_lr0.005_weight_decay5e-05_dropout0.2_hidden_channels64_K3
Epoch: 00, Loss: 2.4459, Cls: 1.2002, Ind: 0.0021, Med: 0.6034, Spu: 0.0114, FD: 0.6287, Var: 0.0002, Ctx: 3, Train: 39.32%, Valid: 39.07%, Test In: 39.30% Test OOD1: 39.25% 
Epoch: 01, Loss: 2.1588, Cls: 1.0611, Ind: 0.0024, Med: 0.5205, Spu: 0.0130, FD: 0.5615, Var: 0.0002, Ctx: 3, Train: 69.51%, Valid: 68.94%, Test In: 69.84% Test OOD1: 52.61% 
…
