…
lambda_med=0.5, lambda_spu=0.1, lambda_var=0.05, lamda=1.0, lr=0.01, num_layers=2, other_env_reduce='sample', pos_weight=5.0, result_name='citeseer_gat_frontdoor_stage1_lr0.01_weight_decay0.0_dropout0.1_hidden_channels32_K2', runs=2, seed=123, store_result=True, tau=1, use_bn=False, variant=False, weight_decay=0.0)
using existing synthetic data...
dataset citeseer: all nodes 19962 | edges 54624 | classes 6 | feats 3713
train nodes 4990 | valid nodes 2495 | test in nodes 2496
test ood1 nodes 9981 
[INFO] env numbers: 6 train env numbers: 3
MODEL: GraphFrontDoor(
  (act_fn): ReLU()
  (input_proj): Linear(in_features=3713, out_features=32, bias=True)
  (backbone_layers): ModuleList(
    (0): FrontDoorBackboneLayer(
      (leakyrelu): LeakyReLU(negative_slope=0.01)
    )
    (1): FrontDoorBackboneLayer(
      (leakyrelu): LeakyReLU(negative_slope=0.01)
    )
  )
  (causal_adapter): Linear(in_features=32, out_features=32, bias=True)
  (spurious_adapter): Linear(in_features=32, out_features=32, bias=True)
  (causal_norm): LayerNorm((32,), eps=1e-05, elementwise_affine=True)
  (spurious_norm): LayerNorm((32,), eps=1e-05, elementwise_affine=True)
  (classifier): Linear(in_features=32, out_features=6, bias=True)
  (spurious_classifier): Linear(in_features=32, out_features=6, bias=True)
  (fd_classifier): Linear(in_features=32, out_features=6, bias=True)
  (query_proj): Linear(in_features=32, out_features=32, bias=True)
  (key_proj): Linear(in_features=32, out_features=32, bias=True)
  (value_proj): Linear(in_features=32, out_features=32, bias=True)
  (aug_norm): LayerNorm((32,), eps=1e-05, elementwise_affine=True)
)
[INFO] TensorBoard logging activated. Logs will be saved to: ./runs/citeseer/frontdoor/citeseer_gat_frontdoor_stage1_lr0.01_weight_decay0.0_dropout0.1_hidden_channels32_K2
Epoch: 00, Loss: 3.7908, Cls: 1.8666, Ind: 0.0003, Med: 0.9634, Spu: 0.0105, FD: 0.9501, Var: 0.0000, Ctx: 2, Train: 21.16%, Valid: 21.16%, Test In: 20.83% Test OOD1: 21.07% 
Epoch: 01, Loss: 3.5521, Cls: 1.7576, Ind: 0.0010, Med: 0.8819, Spu: 0.0036, FD: 0.9080, Var: 0.0000, Ctx: 2, Train: 36.39%, Valid: 36.71%, Test In: 36.14% Test OOD1: 26.72% 
…
