…
_med=0.5, lambda_spu=0.1, lambda_var=0.05, lamda=1.0, lr=0.005, num_layers=2, other_env_reduce='sample', pos_weight=5.0, result_name='citeseer_gat_frontdoor_stage1_lr0.005_weight_decay5e-05_dropout0.1_hidden_channels64_K2', runs=2, seed=123, store_result=True, tau=1, use_bn=False, variant=False, weight_decay=5e-05)
using existing synthetic data...
dataset citeseer: all nodes 19962 | edges 54624 | classes 6 | feats 3713
train nodes 4990 | valid nodes 2495 | test in nodes 2496
test ood1 nodes 9981 
[INFO] env numbers: 6 train env numbers: 3
MODEL: GraphFrontDoor(
  (act_fn): ReLU()
  (input_proj): Linear(in_features=3713, out_features=64, bias=True)
  (backbone_layers): ModuleList(
    (0): FrontDoorBackboneLayer(
      (leakyrelu): LeakyReLU(negative_slope=0.01)
    )
    (1): FrontDoorBackboneLayer(
      (leakyrelu): LeakyReLU(negative_slope=0.01)
    )
  )
  (causal_adapter): Linear(in_features=64, out_features=64, bias=True)
  (spurious_adapter): Linear(in_features=64, out_features=64, bias=True)
  (causal_norm): LayerNorm((64,), eps=1e-05, elementwise_affine=True)
  (spurious_norm): LayerNorm((64,), eps=1e-05, elementwise_affine=True)
  (classifier): Linear(in_features=64, out_features=6, bias=True)
  (spurious_classifier): Linear(in_features=64, out_features=6, bias=True)
  (fd_classifier): Linear(in_features=64, out_features=6, bias=True)
  (query_proj): Linear(in_features=64, out_features=64, bias=True)
  (key_proj): Linear(in_features=64, out_features=64, bias=True)
  (value_proj): Linear(in_features=64, out_features=64, bias=True)
  (aug_norm): LayerNorm((64,), eps=1e-05, elementwise_affine=True)
)
[INFO] TensorBoard logging activated. Logs will be saved to: ./runs/citeseer/frontdoor/citeseer_gat_frontdoor_stage1_lr0.005_weight_decay5e-05_dropout0.1_hidden_channels64_K2
Epoch: 00, Loss: 3.8272, Cls: 1.8805, Ind: 0.0002, Med: 0.9580, Spu: 0.0160, FD: 0.9724, Var: 0.0000, Ctx: 2, Train: 38.18%, Valid: 37.23%, Test In: 36.98% Test OOD1: 38.25% 
Epoch: 01, Loss: 3.4356, Cls: 1.7074, Ind: 0.0005, Med: 0.8506, Spu: 0.0058, FD: 0.8712, Var: 0.0000, Ctx: 2, Train: 24.77%, Valid: 24.61%, Test In: 24.00% Test OOD1: 30.66% 
…
